…
54, 'R': 55, 'S': 56, 'm': 57, 'j': 58, 'V': 59, 'l': 60}
Model: "model"
__________________________________________________________________________________________________
Layer (type)                    Output Shape         Param #     Connected to                     
==================================================================================================
input_1 (InputLayer)            [(None, 1400)]       0                                            
__________________________________________________________________________________________________
embedding (Embedding)           (None, 1400, 300)    18300       input_1[0][0]                    
__________________________________________________________________________________________________
conv1d (Conv1D)                 (None, 1400, 256)    230656      embedding[0][0]                  
__________________________________________________________________________________________________
conv1d_1 (Conv1D)               (None, 1400, 256)    307456      embedding[0][0]                  
__________________________________________________________________________________________________
conv1d_2 (Conv1D)               (None, 1400, 256)    384256      embedding[0][0]                  
__________________________________________________________________________________________________
conv1d_3 (Conv1D)               (None, 1400, 256)    1536256     embedding[0][0]                  
__________________________________________________________________________________________________
conv1d_4 (Conv1D)               (None, 1400, 256)    2304256     embedding[0][0]                  
__________________________________________________________________________________________________
conv1d_5 (Conv1D)               (None, 1400, 256)    3072256     embedding[0][0]                  
__________________________________________________________________________________________________
max_pooling1d (MaxPooling1D)    (None, 29, 256)      0           conv1d[0][0]                     
__________________________________________________________________________________________________
max_pooling1d_1 (MaxPooling1D)  (None, 29, 256)      0           conv1d_1[0][0]                   
__________________________________________________________________________________________________
max_pooling1d_2 (MaxPooling1D)  (None, 29, 256)      0           conv1d_2[0][0]                   
__________________________________________________________________________________________________
max_pooling1d_3 (MaxPooling1D)  (None, 29, 256)      0           conv1d_3[0][0]                   
__________________________________________________________________________________________________
max_pooling1d_4 (MaxPooling1D)  (None, 29, 256)      0           conv1d_4[0][0]                   
__________________________________________________________________________________________________
max_pooling1d_5 (MaxPooling1D)  (None, 29, 256)      0           conv1d_5[0][0]                   
__________________________________________________________________________________________________
concatenate (Concatenate)       (None, 29, 1536)     0           max_pooling1d[0][0]              
                                                                 max_pooling1d_1[0][0]            
                                                                 max_pooling1d_2[0][0]            
                                                                 max_pooling1d_3[0][0]            
                                                                 max_pooling1d_4[0][0]            
                                                                 max_pooling1d_5[0][0]            
__________________________________________________________________________________________________
flatten (Flatten)               (None, 44544)        0           concatenate[0][0]                
__________________________________________________________________________________________________
dropout (Dropout)               (None, 44544)        0           flatten[0][0]                    
__________________________________________________________________________________________________
dense (Dense)                   (None, 2)            89090       dropout[0][0]                    
==================================================================================================
Total params: 7,942,526
Trainable params: 7,924,226
Non-trainable params: 18,300
__________________________________________________________________________________________________
Epoch 1/50
 1/11 [=>............................] - ETA: 1:29 - loss: 0.6936 - 
…
